…
      "outputs": [
        {
          "output_type": "stream",
          "name": "stdout",
          "text": [
            "Model: \"sequential_4\"\n",
            "_________________________________________________________________\n",
            " Layer (type)                Output Shape              Param #   \n",
            "=================================================================\n",
            " embedding_4 (Embedding)     (None, None, 256)         256256    \n",
            "                                                                 \n",
            " lstm_4 (LSTM)               (None, 128)               197120    \n",
            "                                                                 \n",
            " dense_16 (Dense)            (None, 128)               16512     \n",
            "                                                                 \n",
            " dropout_12 (Dropout)        (None, 128)               0         \n",
            "                                                                 \n",
            " dense_17 (Dense)            (None, 64)                8256      \n",
            "                                                                 \n",
            " dropout_13 (Dropout)        (None, 64)                0         \n",
            "                                                                 \n",
            " dense_18 (Dense)            (None, 32)                2080      \n",
            "                                                                 \n",
            " dropout_14 (Dropout)        (None, 32)                0         \n",
            "                                                                 \n",
            " dense_19 (Dense)            (None, 221)               7293      \n",
            "                                                                 \n",
            "=================================================================\n",
            "Total params: 487,517\n",
            "Trainable params: 487,517\n",
            "Non-trainable params: 0\n",
            "_________________________________________________________________\n"
          ]
        },
…
